model/model.pth (torch, 17280 bytes, 4 tensors)

linear_layer1.weight f4 [256, 11]
00000000: a6d8 87be 99dd c83d fe7f 55bd da45 a2bb
00000010: 6a92 a2bd d5b8 25be 0fc3 09be 6ffe 67be
00000020: 5eda c63d ee22 25bd 1043 bc3d bfda 313c
00000030: 2d39 bd3d 148f d33d 325b 48be 5480 8abe
00000040: e5b6 e33d 2f40 70be 5ac6 903e 2668 8c3e
00000050: df61 bb3e e8b3 d33e dd41 23bf 5a2a bd3e
00000060: 3f2e 493d 3a87 a03e 52a2 efbc abc1 57bd
00000070: 6a9f 25be 1245 26bc 99b1 b13e b679 9bbe
00000080: 0c9e dbbe 38db 48be e1a3 7bbe 9889 a43e
00000090: 2827 753e cdcc a23c 5ff4 96be f497 8e3e
000000a0: 4ed6 adbe 272a f43e 44ad 71be 56e5 5cbe
000000b0: adea 933d 30f6 86bd 2d40 e33e 7401 1abe
000000c0: 1d03 06bf f7c0 d23d 724e 3f3e 3f01 3ebe
000000d0: c938 883e edc6 f33d e2ed 57be df18 223c
000000e0: b2f1 08be 8c5a 92be 074e 51ba 9aa2 883d
000000f0: f203 9fbd f38f d73d d967 63bc ede6 c0bd
00000100: 816d 5b3e e2ff 98bd bc1a 42be 41ba 2b3e
00000110: a74f 893e 5a2d a83d f889 7f3e 9d5a 30be
00000120: 8277 a0be a81d e0be 4db6 d1be 23ff 933e
00000130: c1a9 673e c36f 473e 51c1 173c 7053 9f3b
00000140: b0f3 263e 3ded d53d b6f7 d53a 42ec cf3d
00000150: 789f b03e 21eb dc3e 4237 a53e 4d9e 403e
00000160: 849a 2c3e 050d 3c3d 2f6b 94bc 66ad a43d
00000170: 4da1 00be 2cc9 45be 4214 153e 0e58 54bd
00000180: c0cd 013e 43e5 5c3e 9441 3cbe 1031 583e
00000190: 9b7a db3e efad 5d3e c7ab 16be 48f1 c4be
000001a0: 73bd 8dbe ee60 84be ee72 ab3e 3502 853e
000001b0: 547e 033e deea 4b3e fe13 cc3d 2b55 b13e
000001c0: 81de a8be 839b 2b3e 9085 3abd 2d05 09bf
000001d0: fd2d e73e 35fd 81be f4fa 543e feb4 3f3e
000001e0: c301 3ebe 1ab0 823e 810e 37be 247f 663c
000001f0: 264d 863e eedb 34be 9cb4 9bbe e9d5 a53e
00000200: d173 febe efbe f93e bfd6 683d d029 e6be
00000210: b498 05be d0b5 27be 484f 933e d14d 5dbe
00000220: 284a 9abe 08ae 2f3d e173 3e3e 35ad a2bd
00000230: f642 a13e 42ca 9c3e ae10 903b 0c45 89be
00000240: 379a 8b3e e5b5 bcbd be01 cdbe 640d af3e
00000250: 7fc7 54be 53e6 c9be c695 d9be c7d7 ec3d
00000260: 1a5d 4c3d d0c3 883d 76e1 05bd 508c e4bc
00000270: b9b4 05bf 7d27 983c bdcd a1be 4b7d cb3d
00000280: 322c d73e 5ac9 bc3e f577 a53e 910b 9e3d
00000290: 1fb7 28be 9509 14bf e9c6 073f e6a7 3fbd
000002a0: e3ad bd3e 5084 b4be 8652 49be 8c0e 84be
000002b0: c6fb 273e 0f0d 993e 23f1 2abe 3a79 dcbe
000002c0: 5577 073e 0ecb 043d af13 053e e452 9d3d
000002d0: 91b5 6ebe 4c86 e33d b895 0dbe 88b0 c83d
000002e0: b96d b43e fbed 003e 33d9 a13e 23c7 2b3e
000002f0: 9745 213c bd5c 87bc f1eb 68be f215 17be
00000300: bb86 2cbd 01cb b8be e2cf 0f3f 0620 d13e
00000310: 7d50 bf3e 8469 ba3e c7dc acbd 2be1 a73d
00000320: 9f62 bcbd c7ca 0cbd d6a2 efbd 599f db3c
00000330: 159c 8bbe c6aa 463e 0917 b13d 5dc0 40bd
00000340: 006e 813b 2b67 1b3e 8684 8f3e 1d43 a63e
00000350: f6a4 a4be a799 b8bc bb82 913c f8c1 ce3d
00000360: e10a 4f3e 02a8 f23c 3578 4a3c dbec 8f3e
00000370: 9757 b5bd 96da 6b3e 1853 8d3e 8372 17be
00000380: 3ec1 21bf 8de9 03bd 4952 2e3d ac32 abbe
00000390: 516e 913e ab9c a5be e072 f4bd 05a1 82be
000003a0: 890d 54bc 5157 8dbb a01b 5d3e bb3b 513e
000003b0: 05a2 86bd 20fe b7be 3b2f f43e 8783 d73e
000003c0: 6a00 a2be 0464 07bd 0822 c5bd 1b6a b5bd
000003d0: 0099 253e 1121 adbe a74a 183e 9ffc c63e
000003e0: 571a 81be 0b42 9f3e 176d 2fbe fdaa 86be
000003f0: cd82 ac3e 912c 21bd e781 8abe 8bcf 11be
-0.26532477 0.098078914 -0.052124016 -0.0049521746 -0.079380825 -0.16183789 -0.13453315 -0.22655652
0.09709619 -0.040316515 0.09192479 0.010855376 0.09239421 0.10330024 -0.19566038 -0.27051032
0.11118869 -0.23461984 0.2827633 0.2742321 0.36598107 0.41348195 -0.63772374 0.36946374
0.04911637 0.3135317 -0.029252205 -0.05267493 -0.16174093 -0.010148304 0.3470581 -0.30366296
-0.42894018 -0.19614875 -0.24574234 0.32136226 0.23940718 0.019873047 -0.29483315 0.27850306
-0.33952564 0.4768841 -0.23601252 -0.2157186 0.07222495 -0.06589925 0.443849 -0.15039617
-0.523485 0.102907114 0.18682268 -0.18555163 0.26605824 0.119031765 -0.21086839 0.009893625
-0.1337345 -0.28584707 -0.0007984344 0.06671639 -0.077644244 0.10525503 -0.01387974 -0.094190456
0.21428491 -0.07470681 -0.18955511 0.16770269 0.26818582 0.08211775 0.24954975 -0.17222066
-0.31341177 -0.43772626 -0.40959397 0.2890559 0.2262335 0.19476227 0.009262399 0.0048622414
0.16303897 0.1044564 0.0016324434 0.101524845 0.34496665 0.4314814 0.3226872 0.18810387
0.16855818 0.045910854 -0.018117515 0.080408856 -0.12561531 -0.19315022 0.14558509 -0.051841788
0.12676144 0.21571831 -0.18384391 0.21112466 0.42866978 0.21648382 -0.14713965 -0.38465333
-0.276836 -0.258552 0.33486122 0.25978246 0.12841159 0.19913813 0.09964751 0.3463529
-0.32982257 0.16758542 -0.04553753 -0.5352352 0.45152274 -0.25388494 0.20798856 0.18721387
-0.1855536 0.2552498 -0.17876627 0.014068399 0.26230735 -0.17662022 -0.30411232 0.32389763
-0.49697736 0.48778483 0.056845423 -0.44953775 -0.13046533 -0.1637795 0.28771424 -0.21611716
-0.30134702 0.04289058 0.18598892 -0.07943193 0.314964 0.3062306 0.0043965196 -0.2681049
0.27266094 -0.09214381 -0.40040392 0.34189904 -0.20779227 -0.39433536 -0.4249708 0.11564594
0.049893476 0.06677973 -0.03268572 -0.027898937 -0.52228886 0.018573517 -0.31602278 0.09936007
0.42025906 0.3687237 0.32318082 0.0771705 -0.16476105 -0.5782712 0.5303789 -0.04679098
0.37046728 -0.35257196 -0.19660386 -0.25792348 0.16404638 0.29892775 -0.16693549 -0.4306124
0.13229115 0.03242021 0.1299579 0.07681826 -0.2331145 0.111095995 -0.13826644 0.09799296
0.35239962 0.12590782 0.31611022 0.16775183 0.009843252 -0.016523713 -0.22746255 -0.14754465
-0.042120676 -0.3609238 0.5617658 0.40844744 0.37366095 0.36408627 -0.084405474 0.08197244
-0.09198498 -0.03437307 -0.1170098 0.026809381 -0.2726752 0.19401082 0.08646972 -0.047058452
0.0039498806 0.15176074 0.28030795 0.32473078 -0.32157105 -0.022534205 0.017762532 0.1009559
0.20218994 0.029621128 0.012357761 0.28110394 -0.08854597 0.23032603 0.27602458 -0.14789777
-0.6318549 -0.032205153 0.042558942 -0.33437097 0.28404477 -0.3234609 -0.11935973 -0.25513473
-0.01294268 -0.0043133874 0.2159257 0.20432942 -0.065738715 -0.3593607 0.47692284 0.42092535
-0.3164094 -0.033054367 -0.096256316 -0.08858129 0.16171646 -0.3381429 0.14872228 0.3886461
-0.25215408 0.31105074 -0.17131458 -0.2630233 0.33693543 -0.039349142 -0.27052233 -0.14239328

linear_layer1.bias f4 [256]
00000000: 8402 babe 62f0 a2be a4b7 7c3d 9c0d cbbe
00000010: f6b2 27be 439c b5be 56bd 713d 5b17 0ebf
00000020: 70b2 afbe 0557 9abe 6c86 45be 971e 39be
00000030: 10d3 ebbd f42b 3b3d 2ba4 53be 2aa0 12bc
00000040: 8ca7 c3be f1c5 a7be 3d47 27be da1a f0be
00000050: dc7a 433d dc71 073e 6af2 49bd ec2a ff3c
00000060: d0aa 6ebe 6fc5 6dbd 3575 01bf cbb9 7fbe
00000070: 2459 9d3d ac58 833e 7ea4 eebe 2bca 05bf
00000080: 3065 04bd 53c9 41be e612 92be 358b 2dbe
00000090: 4b9c a53c 5715 c2bd 9322 0b3e dc1a cdbe
000000a0: f53c 03bf 27f2 85be 72d3 46be 136a 7bbe
000000b0: 157f 84be 55e5 f13e 51a1 a1be 0fc4 cf3b
000000c0: eb7e 15bf b5cb b6be b0d8 91be c79b cc3c
000000d0: fb5c 1ebe db03 eebd 7ec2 31be 9d40 4abe
000000e0: 0139 79be 80e2 aebe d15e eabd a85f e73e
000000f0: 1099 e3be 0ca5 a9bd e12c c9be 7220 e73d
00000100: 1b9f 5cbe a2b7 ec3c bf52 42be c6a0 70be
00000110: 7141 91be 611f 1d3e 6be8 3dbe 5b50 b5be
00000120: 7b78 673d 7989 af3d c29a b8bd d2de 0cbe
00000130: 6e58 e8bd e076 66bd 781e abbd 738a 1ebf
00000140: 8e72 c2be 7234 0ebe 668a 4a3c 52a5 a63e
00000150: 2bbe 2abe 135e af3c ca85 a1be 8cee 333b
00000160: 803f 5cbe 8542 10be f692 bcbd 0e11 f9bc
00000170: 0cae f73d 3daa 28bc 9cf3 8abd 5f33 ad3d
00000180: 80a7 eabd 1545 62be 7c2a 35be 5b98 a53b
00000190: b1cc 58be c8c0 393d fde8 bebd 2c31 fe3d
000001a0: 1a3d d0be 7575 1fbe 03a4 b8be 2995 7dbe
000001b0: fe92 4fbe 0d6c 80bd ed63 a6be 3f97 2fbf
000001c0: f248 8bbe 12d6 a4bd 62f4 4e3a 78dc 04be
000001d0: fefc 67be cb9e 14bd d16b e0bd 15ca 8abe
000001e0: e97e efbd 35c7 37be cdf3 bcbd 23d4 f3be
000001f0: f666 62be 8d42 8dbc 0f01 933d a7a3 59be
00000200: 6be7 3ebe 0aef c4bd a502 d13d 51aa 943d
00000210: e693 ec3d 0f31 1dbe 644e abbd 3aba 5bbe
00000220: 5162 e9bd 02d3 88be 527d 193e f592 703d
00000230: e65f a7be de45 0cbb 044c 0ebd df48 39be
00000240: ad69 2fbe d53e 76be af3a b6be 5903 bcbd
00000250: e379 d7bb 1e6b a2be 002f 8ebe f7ad 06be
00000260: aae6 8fbd dc6a 8bbe a789 3cbd 7ca4 74be
00000270: 145e bbbe de6c dabc b288 a2be 8440 17bf
00000280: 035d a4bd 3654 99bd 9a8c a5bd 1d4f f53a
00000290: 57c5 3abe 5f9e 29be 58c4 37be be0f e5bd
000002a0: f2a9 6ebd ed35 9ebe aba1 2ebd c7b8 85be
000002b0: 0129 53be 3951 5c3c c2e5 29be 2dea 73be
000002c0: 6535 303e 0c4a 94be a3d0 c6be aa16 7a3e
000002d0: 02f3 433d b0cb 96be d786 9bbe 488f c0bd
000002e0: fa80 70be 6e09 83be c207 ebbe 5d6f abbe
000002f0: fbdd 49be e05d 13be 1e78 fdbd b57b a33d
00000300: 8f03 163e eddd 5fbd c3e4 b4bd 3c09 ebbd
00000310: 50ba 63be 013a 6ebd 44a4 113d b8a2 79be
00000320: f092 733e 2ac3 80be 0081 e6be e07c 04be
00000330: 432a 00be ddec 4c3d a9bc cd3d 7926 1a3d
00000340: 8187 ecbe 9579 9b3e e129 9bbd d5e3 f93d
00000350: 5c4d 8abd 2006 a3be ab55 15bf 7637 93bd
00000360: 26b1 36be c5f5 62be 17a3 b0bd ac05 7ebe
00000370: 1353 a1be e71d 99be 15cc 9cbb 24d9 03bd
00000380: 3c25 803e 357d 01bf f80b 80be 601e 023d
00000390: 3c88 173e 7b0b fbbe aa3f ce3d ac10 63bd
000003a0: 6a8c 5abe 986f 3fbe a00d b8bd 0ccf a4be
000003b0: e5e8 0f3d 7ed1 cebd f314 89bd c3f2 67be
000003c0: 3736 f1bd 152d c33d be8f a6be b0a7 063e
000003d0: 2a78 6bbe 1539 21be 0667 5dbc 1a4b 29be
000003e0: 4137 8a3e 6bb2 16be d4d1 04be 3b40 5bbe
000003f0: 0c18 abbe 8639 99bd e2f2 90be 40ab e7bc
-0.36330044 -0.31824023 0.06169857 -0.3965882 -0.16376862 -0.3547078 0.059018455 -0.5550439
-0.34315825 -0.30144516 -0.19289559 -0.18078075 -0.11514866 0.045696214 -0.20668094 -0.008949319
-0.38213766 -0.32768205 -0.16335769 -0.46895486 0.04772459 0.13227028 -0.04930345 0.031148396
-0.23307347 -0.058049615 -0.5056947 -0.24973218 0.07683018 0.2565359 -0.46609873 -0.5226161
-0.032323062 -0.18924455 -0.28530043 -0.16947635 0.020216128 -0.094767265 0.13587408 -0.40059555
-0.5126489 -0.2616131 -0.19416597 -0.24552183 -0.25878206 0.4724528 -0.31568387 0.0063405107
-0.58396786 -0.3570229 -0.28485632 0.024976624 -0.15465157 -0.11621829 -0.17359349 -0.1975121
-0.24338152 -0.3415718 -0.11443866 0.45190167 -0.44452715 -0.08283433 -0.39292052 0.11285485
-0.21545069 0.028896157 -0.18976878 -0.2349883 -0.2837024 0.15344001 -0.18545692 -0.3541287
0.056511384 0.08571143 -0.09013893 -0.13756874 -0.113449916 -0.05626571 -0.08355421 -0.61930007
-0.37978023 -0.13887194 0.012362098 0.32548004 -0.16674106 0.021407163 -0.31547385 0.0027455417
-0.21508598 -0.14087875 -0.09207718 -0.03040364 0.12093744 -0.010294494 -0.06784746 0.08457064
-0.11457729 -0.22096665 -0.17691988 0.0050535626 -0.21171834 0.045349866 -0.09321783 0.124117225
-0.40671617 -0.1557215 -0.3606263 -0.24763931 -0.20270917 -0.06270609 -0.32498112 -0.6859016
-0.2720409 -0.08048643 0.0007894692 -0.12974727 -0.22655103 -0.03628425 -0.10958064 -0.271073
-0.11694128 -0.17947085 -0.09226189 -0.47622785 -0.22109589 -0.017243648 0.07177936 -0.21253835
-0.18642966 -0.096159056 0.102055825 0.07259048 0.11551647 -0.15350746 -0.08364561 -0.21457759
-0.113957055 -0.26723486 0.14989212 0.0587339 -0.32690352 -0.0021403949 -0.034740463 -0.18094204
-0.17130156 -0.24047406 -0.35591647 -0.09180326 -0.0065758093 -0.3172235 -0.27770233 -0.131523
-0.070264176 -0.27229965 -0.046029713 -0.23890871 -0.36595213 -0.02666324 -0.31744915 -0.5908282
-0.08025553 -0.07486765 -0.08083458 0.0018715594 -0.18239342 -0.1656432 -0.17945993 -0.11184643
-0.05826754 -0.30900517 -0.042634647 -0.26117536 -0.2062111 0.013447099 -0.16591552 -0.238198
0.17207868 -0.28962743 -0.38831052 0.24422708 0.047839172 -0.29452276 -0.30376312 -0.09402329
-0.234867 -0.25593132 -0.45904356 -0.334834 -0.19713585 -0.14391279 -0.12376426 0.079825796
0.14649795 -0.054655004 -0.08832695 -0.11476371 -0.22239041 -0.058160786 0.035557047 -0.24378479
0.23786521 -0.25148898 -0.45020294 -0.12938261 -0.12516122 0.050030578 0.1004575 0.037634347
-0.4619713 0.30366197 -0.07576347 0.12201659 -0.067530364 -0.3184061 -0.58333844 -0.07188313
-0.17841014 -0.22164066 -0.08624857 -0.24806851 -0.31508693 -0.29905626 -0.0047850707 -0.032189503
0.25028408 -0.50581676 -0.2500913 0.03176725 0.14798063 -0.49032196 0.10070737 -0.05543582
-0.21342626 -0.18694913 -0.08986974 -0.32189214 0.035134215 -0.10098551 -0.06693449 -0.226512
-0.11777919 0.09530083 -0.32531542 0.13149905 -0.22995058 -0.15744431 -0.013513332 -0.16532555
0.2699528 -0.14716499 -0.12970668 -0.2141122 -0.33416784 -0.07481675 -0.28310305 -0.0282799

linear_layer2.weight f4 [3, 256]
00000000: 58b4 523d a1b4 d7bd 5870 873e 51c0 13bd
00000010: 95ac 83bb ce97 2cbd fa06 eb3d 35b4 11be
00000020: a634 5abd 2f59 09be 331b 51bd 94bc 04bf
00000030: 6beb 3f3c 6ceb 3c3e 8d36 2cbe f5db 5f3e
00000040: 19cd 8bbd 5dd6 1ebe 2297 61bc ed10 9dbd
00000050: 492a 2cbe f057 3d3e 98b6 4abe 61c9 4dbe
00000060: 4042 2fbe be86 17bf bcc9 57bd 870a 01bf
00000070: 113a 0abf a3b6 023f 1c01 01bb 31d8 13be
00000080: e325 9ebe e421 ae3c eb3d cebc b898 b6bd
00000090: 6b0b 1c3f 64e9 333d 4982 88be bf98 a9be
000000a0: 3260 36be 945c 613d 05dc a63a 814b b3be
000000b0: 9d7b 9bbd f5c4 bb3e 3461 0fbe 31f1 c0be
000000c0: bad0 56be a1b5 abba 8d80 363d 9db5 d3be
000000d0: 40a6 953c 2bb4 62be 4563 bbbe 71bb b6bc
000000e0: 0018 18bf 662c 28be 8ee2 d2be 8e1c 493e
000000f0: 0efd 16be 66ab 63bb bfd3 31be d897 96bd
00000100: 5835 1cbd 2378 53be b5bb 4ebd 6bce f93e
00000110: 30ff 55bd febf 6bbe 4715 c7be a53c 4ebd
00000120: b955 86be 0b76 ec3c 4f2a 463d ffaf a43e
00000130: d1d0 6cbe 6a8a 133f a015 763a 43ae dabd
00000140: 781e 04be ad4e 58bc edbd 023e 0058 453e
00000150: 0f21 cfbc 6525 373e cbdd 96be b310 223e
00000160: 500e 0dbd 122e 953e aaad fdbd 4fc0 923c
00000170: c679 8f3e 20f9 683d c44a 443d 2043 a93e
00000180: 43fa aabc 9e23 03bc 7c0c 8d3d 1658 a03e
00000190: ec48 613e 526f 543e 75d1 a53d 6856 a23e
000001a0: b890 2abe c22a a43e 5f28 e73c 4ddc 18bd
000001b0: d6dc 20be 4274 0f3e 4971 113c 02d1 74be
000001c0: a74d 49be b4d7 bbbe 1a55 553e a8d3 ae3c
000001d0: 59c5 26bf 4ddd 2d3d b6d4 c83e 4784 1e3d
000001e0: bed6 0cbf db8a 413e 2a89 d4be 70b2 96be
000001f0: f766 32bd 588f 69be 2416 dc3d fe17 04bd
00000200: 9cb1 e0be af8b 723d c2a8 8d3e 9603 d53e
00000210: 5f72 0ebf b243 a1be b772 ea3b c77b 03bf
00000220: 8879 ed3c a073 f33b 76de 43be 6565 513e
00000230: 8a99 57bd 4559 ce3c 38d3 7e3e feb9 08bd
00000240: 604c f0bd 2079 6f3e 4e31 74bc 15ec 60bd
00000250: 8d17 d7be e29e 80bd acc9 82be 55f8 d0bc
00000260: 2f10 24bd b572 07bf 8ab9 14be a05d 45be
00000270: 7777 a6be 1095 543e f39c 9fbe 6098 32be
00000280: ed61 13be 1d56 17bf 03b8 c63e 9e8d 383e
00000290: 05a6 48bd 0e74 e83e 72c2 b8bd a24a d4be
000002a0: 9940 c1be 3569 233d 3623 b03e 953e 06be
000002b0: 026c 62bd 0875 ab3e b12a 07bf 638c 4bbe
000002c0: a75f 8b3d 33e6 0f3b e661 d4bd 1bf8 cc3d
000002d0: 32df 253e 5823 a8bd baa6 8abc 9d61 c23c
000002e0: e326 edbe a1bd 34bd d4aa 18bd 5200 10bf
000002f0: 284a 4abd 1aca 6b3c 07d0 d6bd 62b9 adbe
00000300: 93ac bf3e d461 a23e f43c 44be daf4 0a3b
00000310: 72aa 023e 5dea 553b 830e 8e3d 7d23 e8be
00000320: 1047 ac3e fccb 2dbe 02cc 9dbc 80fd e7be
00000330: d7f4 813e 4e26 6d3e 5260 bb3e 8597 e03d
00000340: b2bc 403d 4fce 333f 7ea6 babd 4cc6 ab3e
00000350: 3527 4c3e cde9 cfbe 5ab0 86bd a13c e5bb
00000360: 17fc d73b c5f9 b53e 8e43 75bd ad2d 19be
00000370: 0bda 053e ec21 71bd 0bdc f53d dc15 e6be
00000380: 0dfd 9a3e dcc2 21bc feff 8abc e9e4 1dbe
00000390: f4e0 0f3f 2bed 47be 58e7 7ebe 057a e73e
000003a0: d17b 983e 9758 c8bc d1d1 043e 6b82 9fbd
000003b0: 10eb f83b 6b41 c4be 7d05 223e c477 91bd
000003c0: b550 75be de7a c7bd 5e09 5ebd 54e7 37bc
000003d0: 110f 9abe 7d86 f53c 1f11 16bf 4c91 e0be
000003e0: 588b a93e 11ba 643e d23c 40bc cc59 53bd
000003f0: f55e 21bd 93c8 5dbe 2a81 5cbd be67 fcbd
0.05144152 -0.10532499 0.264529 -0.03607208 -0.004018376 -0.04213696 0.1147594 -0.142289
-0.053272866 -0.13412927 -0.05105133 -0.5185025 0.011713843 0.18449181 -0.16817684 0.2186125
-0.06826229 -0.1551146 -0.013768943 -0.07669244 -0.16813006 0.18490577 -0.19796216 -0.20096351
-0.17115116 -0.59189975 -0.052682623 -0.5040669 -0.5399485 0.5105993 -0.00196845 -0.14437939
-0.3088828 0.021256395 -0.02517601 -0.089158475 0.6095492 0.04392375 -0.266619 -0.3312435
-0.17810133 0.05501993 0.0012730366 -0.35018542 -0.07591937 0.36673704 -0.14001924 -0.37684014
-0.2097806 -0.0013100394 0.04455619 -0.41349497 0.01826775 -0.22139041 -0.36599174 -0.022306176
-0.5941162 -0.16423187 -0.41188473 0.19639799 -0.1474497 -0.0034739613 -0.17365931 -0.07353181
-0.03813681 -0.20651297 -0.05047198 0.48790297 -0.05224532 -0.23022458 -0.3888342 -0.050350804
-0.26237276 0.028864881 0.048380192 0.32165524 -0.23126532 0.5763308 0.00093873776 -0.10677769
-0.12902248 -0.0132023515 0.12767763 0.1927185 -0.025284318 0.17885359 -0.2946609 0.15826683
-0.034437478 0.2913671 -0.123866394 0.017913966 0.28022593 0.05687821 0.047922865 0.33059025
-0.020871287 -0.008004097 0.06887147 0.31317204 0.22000474 0.2074559 0.080965914 0.31706548
-0.16656768 0.32063872 0.028217493 -0.03731947 -0.15709242 0.14009193 0.008877107 -0.23907855
-0.19658528 -0.36688006 0.20833245 0.02134116 -0.6514488 0.042447377 0.39224786 0.03870037
-0.5501517 0.18900625 -0.41510898 -0.29433012 -0.043555226 -0.22808588 0.107464105 -0.032249443
-0.43885505 0.059215244 0.27667814 0.41604298 -0.55643266 -0.3149696 0.0071547884 -0.51360744
0.028988615 0.007429555 -0.19127831 0.20448835 -0.05263666 0.025189051 0.24885261 -0.0333805
-0.117333174 0.2338605 -0.014904333 -0.054912645 -0.42010155 -0.062803045 -0.25544488 -0.025509039
-0.040054496 -0.52909404 -0.14523903 -0.19273996 -0.3251302 0.20759988 -0.3117443 -0.17440939
-0.14392824 -0.59115773 0.38812265 0.18022773 -0.048986454 0.45401043 -0.090214625 -0.4146319
-0.37744597 0.039895255 0.34401864 -0.1310981 -0.055278786 0.33487725 -0.52799517 -0.19877772
0.068053536 0.0021957278 -0.10370235 0.1000826 0.16198424 -0.08209866 -0.016925205 0.023728186
-0.4631873 -0.044126157 -0.03727229 -0.5625049 -0.049387127 0.0143914465 -0.10488897 -0.33930498
0.3743635 0.31715262 -0.19163877 0.0021203072 0.12760332 0.0032640912 0.06936362 -0.45339575
0.33647966 -0.16972345 -0.019262318 -0.45310593 0.2538211 0.23159143 0.36596924 0.109664
0.047054954 0.70236677 -0.09113787 0.33549726 0.19936831 -0.40608063 -0.06576605 -0.006995753
0.0065913307 0.35542122 -0.05987888 -0.1495883 0.13071458 -0.05887024 0.120048605 -0.44938552
0.30271187 -0.009873118 -0.01696777 -0.15419354 0.56202626 -0.19524066 -0.24892938 0.4521028
0.29781964 -0.024456305 0.12970664 -0.07788547 0.007596381 -0.3833116 0.15822406 -0.071029216
-0.23956569 -0.09740232 -0.054208152 -0.0112245865 -0.3008962 0.029971356 -0.58619875 -0.43860853
0.33114123 0.22336604 -0.011733251 -0.05159931 -0.0393972 -0.21658544 -0.053834118 -0.12324475

linear_layer2.bias f4 [3]
00000000: 3f1e 8b3e 86b3 3bbd 1697 c5bd
0.27171513 -0.045825504 -0.09647958
