model/model.pth (torch, 17280 bytes, 4 tensors)

linear_layer1.weight f4 [256, 11]
0.09135797 0.17919567 -0.04546672 0.2737585 -0.09012325 0.10816069 -0.1643874 -0.19779731
-0.15443918 0.2505277 -0.20793718 0.14193092 0.06521267 -0.0053638387 -0.17049192 0.2757684
0.16702439 -0.19815382 0.19054502 -0.16902182 -0.22931072 0.18037201 0.09678769 -0.012316896
0.1741739 0.21770032 0.16169481 0.11593525 0.19788605 0.14323336 -0.10682188 -0.28184876
-0.15656994 0.2597447 0.18538132 0.24705687 -0.021215796 -0.054080956 -0.05176145 0.22932981
0.22157803 0.2865311 -0.21619287 -0.12732184 -0.09150904 -0.12037906 -0.035062063 -0.11423648
-0.22745746 -0.018758807 -0.19451506 0.111271694 0.23682176 -0.06204807 -0.16681592 -0.040049903
0.13010569 0.026819302 0.20277573 0.1206238 0.2895712 0.056081217 -0.18641227 0.28621143
0.2143435 -0.20942953 0.14523889 0.07721075 -0.2783943 0.022314535 0.21866503 0.29287678
0.23520188 -0.241492 0.15936254 -0.10419007 0.29562125 0.21786775 -0.23302819 -0.1391768
0.19682012 0.009875758 0.16853486 0.28961018 -0.11030418 -0.19746764 0.092054255 0.09129561
0.119084865 -0.10666427 -0.08947218 0.06885728 0.1251579 0.27292803 -0.03806826 0.27509558
-0.24499023 0.014551217 -0.017808907 -0.13888653 0.2979147 -0.12172822 0.23218465 0.028925667
0.23544094 0.20026284 0.17589651 0.027708746 -0.21248864 0.099952176 -0.18183842 -0.068021715
0.27882364 0.024211785 -0.27346793 -0.18610755 -0.21996552 -0.10928408 0.27815345 0.23932436
-0.0015943935 -0.28654578 0.13403857 0.19289236 0.114835076 -0.18059555 -0.24507958 -0.13849021
0.07366706 -0.05575863 -0.07759656 0.09707031 0.17987357 0.1998945 -0.14970197 0.2829739
-0.11121519 -0.24027005 0.14148581 -0.1907076 0.27457452 -0.10096947 0.10467472 -0.22056538
-0.035931345 0.074343756 0.2395357 0.27952334 -0.18187146 0.10770396 -0.12769657 0.009373311
0.116968036 0.18363298 0.25020468 0.06759968 0.13681674 -0.06393213 -0.10838601 0.27793267
0.2983451 -0.21674205 -0.0072978213 0.012327894 -0.16774504 0.24205239 0.17227544 -0.119515136
0.13397276 -0.25592723 -0.15211615 -0.28705913 -0.012590961 0.033229154 -0.09082306 0.028783979
-0.23269626 0.12305225 -0.021237792 -0.1925607 -0.23741388 0.19081654 -0.15340517 -0.06012573
0.2952742 0.18237181 0.15409258 0.0047693783 0.030440986 0.21856846 0.015624222 0.113414794
-0.17544101 0.10278614 0.15216148 0.16119368 0.12433192 -0.105493255 0.11790539 0.09039549
-0.18555754 -0.06959458 -0.01142055 0.0061949836 0.14686751 0.27685732 0.11761185 -0.3012383
0.056232464 0.05503495 0.022911152 0.0053874534 0.038718075 -0.070840865 -0.018858405 0.20396462
0.052867915 -0.22073294 0.21214883 0.17724232 0.0517608 0.273563 -0.29847625 -0.20023754
0.1936505 -0.11689781 0.03184542 0.044737585 0.26998684 -0.20160675 0.17690618 0.2309912
-0.0816974 0.14568746 -0.26066822 -0.23473984 -0.015723929 -0.15720987 0.12112064 0.17399825
0.2074303 -0.22261639 -0.09174924 -0.08841636 0.11439693 -0.099166825 -0.13652974 0.29483074
0.037695568 0.13398667 0.086097136 0.21130227 0.1284489 -0.066477105 0.15134859 0.13162719
00000000: e319 bb3d 127f 373e 503b 3abd 132a 8c3e
00000010: 8a92 b8bd 5a83 dd3d 2c55 28be 618b 4abe
00000020: 4e25 1ebe 2b45 803e 7ced 54be 5756 113e
00000030: 388e 853d 24c3 afbb 6f95 2ebe 8431 8d3e
00000040: 7108 2b3e d6e8 4abe 3c1e 433e 0e14 2dbe
00000050: 6ed0 6abe 71b3 383e a038 c63d cecc 49bc
00000060: a55a 323e d5ec 5e3e 5393 253e 766f ed3d
00000070: a4a2 4a3e c4ab 123e 6ec5 dabd 7b4e 90be
00000080: df53 20be 42fd 843e 9ad4 3d3e 7afc 7c3e
00000090: c0cc adbc fe83 5dbd d003 54bd 6fd5 6a3e
000000a0: 5ae5 623e 34b4 923e aa61 5dbe a860 02be
000000b0: 1769 bbbd 4c89 f6bd 3d9d 0fbd d1f4 e9bd
000000c0: 9cea 68be 12ac 99bc f52e 47be 6ae2 e33d
000000d0: 6781 723e 1e26 7ebd cbd1 2abe 5e0b 24bd
000000e0: 6d3a 053e 27b4 db3c 71a4 4f3e 9c09 f73d
000000f0: ad42 943e 6bb5 653d dce2 3ebe 4e8a 923e
00000100: dd7c 5b3e b274 56be 81b9 143e ab20 9e3d
00000110: b389 8ebe f9cc b63c bae9 5f3e f2f3 953e
00000120: c3d8 703e ae49 77be ef2f 233e 9a61 d5bd
00000130: ab5b 973e b918 5f3e f19e 6ebe 5d84 0ebe
00000140: 378b 493e eecd 213c 6794 2c3e c947 943e
00000150: 28e7 e1bd f534 4abe f186 bc3d 31f9 ba3d
00000160: c4e2 f33d cc72 dabd 313d b7bd 0c05 8d3d
00000170: 6429 003e 39bd 8b3e 77ed 1bbd 54d9 8c3e
00000180: b8de 7abe 3a68 6e3c fce3 91bc 4538 0ebe
00000190: 4788 983e a54c f9bd d0c1 6d3e 85f5 ec3c
000001a0: 6e17 713e b411 4d3e 371e 343e 74fd e23c
000001b0: 9f96 59be bab3 cc3d da33 3abe f84e 8bbd
000001c0: f9c1 8e3e cb57 c63c fd03 8cbe fa92 3ebe
000001d0: a43e 61be 55d0 dfbd 216a 8e3e 7211 753e
000001e0: f8fa d0ba 21b6 92be 6841 093e 9385 453e
000001f0: a72e eb3d 0aee 38be 24f6 7abe 61d0 0dbe
00000200: c1de 963d 2963 64bd f2ea 9ebd cccc c63d
00000210: c730 383e 25b1 4c3e 794b 19be f4e1 903e
00000220: cac4 e3bd 5a09 76be a8e1 103e da48 43be
00000230: 0895 8c3e 15c9 cebd b35f d63d e4db 61be
00000240: bf2c 13bd 8a41 983d d948 753e af1d 8f3e
00000250: 833c 3abe e593 dc3d e4c2 02be 8492 193c
00000260: f08c ef3d 490a 3c3e d41a 803e b371 8a3d
00000270: b019 0c3e d9ee 82bd 7cf9 ddbd 314d 8e3e
00000280: b0c0 983e a1f1 5dbe 9022 efbb effa 493c
00000290: 5bc5 2bbe 95dc 773e f968 303e 5ac4 f4bd
000002a0: 2830 093e e508 83be 56c4 1bbe 6af9 92be
000002b0: 514a 4ebc 4b1b 083d 7101 babd 61cc eb3c
000002c0: ee47 6ebe d102 fc3d e1fa adbc a22e 45be
000002d0: a01c 73be 6965 433e 3f16 1dbe 6646 76bd
000002e0: 2e2e 973e adbf 3a3e 72ca 1d3e 7248 9c3b
000002f0: 605f f93c 69d0 5f3e bdfc 7f3c 0446 e83d
00000300: cfa6 33be 8a81 d23d 38d0 1b3e f50f 253e
00000310: bca1 fe3d d90c d8bd 6278 f13d 4521 b93d
00000320: cc02 3ebe 9a87 8ebd 421d 3bbc 4aff ca3b
00000330: 7064 163e 3ec0 8d3e 7bde f03d e83b 9abe
00000340: 0354 663d 546c 613d 2bb0 bb3c 3c89 b03b
00000350: d896 1e3d 0415 91bd f17c 9abc 1adc 503e
00000360: 078c 583d d107 62be 8b3d 593e 037f 353e
00000370: 2203 543d 7310 8c3e e1d1 98be 120b 4dbe
00000380: 514c 463e 1e68 efbd 5870 023d c23e 373d
00000390: b73b 8a3e 0072 4ebe e526 353e f588 6c3e
000003a0: f750 a7bd 182f 153e 4e76 85be a45f 70be
000003b0: 78cf 80bc a0fb 20be 190e f83d 992c 323e
000003c0: 9c68 543e 8df5 63be 07e7 bbbd a313 b5bd
000003d0: f048 ea3d fa17 cbbd 74ce 0bbe 0ef4 963e
000003e0: ab66 1a3d cd33 093e b253 b03d 9f5f 583e
000003f0: 1c88 033e 2625 88bd 20fb 1a3e 47c9 063e

linear_layer1.bias f4 [256]
-0.059493817 0.20721081 0.20795949 -0.22938484 0.2602084 0.022582598 0.1158519 0.21713091
0.16038688 -0.03854436 0.18951763 -0.23772246 0.27728468 0.25283787 -0.043785993 -0.083595835
-0.29287183 0.04674043 -0.019036934 0.016450515 -0.06117261 -0.16581114 0.092921056 0.23936224
0.25698742 -0.041030824 -0.14732714 0.116254784 -0.20817824 -0.21574241 0.20128539 0.20314458
-0.29930714 0.22735122 0.16050954 -0.19802892 0.11460397 0.26373336 -0.2450715 0.29063
0.14482142 -0.18697467 0.09736867 -0.22949839 -0.07073379 0.17978421 -0.25323066 -0.01860382
0.2869168 -0.20800816 0.030709049 0.12756693 -0.15067847 0.30110562 0.008111174 0.2596272
0.10752813 0.020485543 0.0052193124 -0.15914354 -0.09185811 0.27578205 -0.09256033 -0.29233617
-0.1659498 -0.13235809 -0.25368166 0.25090006 -0.05371793 0.1417124 0.22801283 -0.1675722
0.22692817 0.16532303 0.16747268 -0.16254802 -0.23777619 0.14485665 0.18398662 -0.19310643
0.16562948 -0.07681178 -0.069052525 -0.2441608 -0.1585383 0.070531756 -0.21724173 0.02454954
0.15704961 -0.1924908 0.17944552 -0.099898875 0.13812198 0.14379212 -0.10028174 0.16257903
-0.18752974 0.064377494 -0.115369156 -0.16390336 0.1900507 0.04849603 -0.086058535 0.021498846
-0.04813973 -0.047297187 0.12288792 -0.2482422 0.05767539 -0.25364745 -0.13622242 -0.16297789
-0.11264989 -0.07467123 -0.041363798 0.23822728 -0.2611784 -0.10288937 0.054023948 -0.050838217
-0.20181842 -0.2355988 -0.22256204 0.23496592 -0.07973732 0.08865304 0.07199593 0.18549205
0.08816088 0.04620276 -0.21431953 0.11227152 0.16445173 -0.22759765 0.05157124 0.2704534
0.17809536 0.2574284 0.08446709 -0.2590227 -0.00448374 0.25496295 -0.13399771 0.17605527
-0.10270947 0.21509533 0.09941807 -0.2224279 0.05301406 0.22683881 0.01383872 0.28052586
0.28344524 0.28515622 0.17627218 -0.104594104 -0.16226615 0.15242113 0.035704795 0.008323993
0.26468778 0.25245804 -0.16740726 -0.15643513 -0.19758607 -0.0017752585 0.2615781 -0.06782493
0.21370235 0.2503411 0.11926199 0.12532769 0.29912373 0.29353678 0.11805151 0.1127322
0.27680063 -0.19972679 0.0799661 -0.2547871 0.16222122 0.18414456 -0.17778988 -0.057446077
0.08888067 -0.092395745 -0.22032912 -0.19447532 0.29801303 -0.08277429 0.2787904 0.2526725
-0.27154648 -0.24332897 -0.08566683 0.09464481 0.15992087 -0.14298674 0.113649316 0.098297365
0.09169878 0.049657706 -0.021992415 0.29713026 -0.2993282 0.0961543 -0.2696232 -0.23146375
0.18383555 0.15750076 -0.19112226 -0.14433749 -0.2865062 0.19514479 0.19858152 0.16069354
0.013355072 0.026217474 -0.1869563 0.19917841 0.17673485 -0.047282595 -0.21919778 0.30108246
-0.060566537 -0.07840427 -0.2613245 -0.17117861 0.09065517 -0.24453484 0.047484953 0.16413616
0.23312503 0.124906905 0.031281907 -0.0020372106 -0.04337743 -0.13006148 -0.2315678 0.15821318
0.20875265 -0.24765615 0.26179504 0.19948907 0.20588353 -0.050694086 0.053749703 0.23755597
0.29217353 -0.14841266 0.12910414 0.15960544 0.18660395 -0.2322997 -0.18015125 0.20963146
00000000: caaf 73bd 122f 543e 55f3 543e dce3 6abe
00000010: 093a 853e 24ff b83c c343 ed3d 9157 5e3e
00000020: 753c 243e b1e0 1dbd e910 423e 846d 73be
00000030: 42f8 8d3e f773 813e f158 33bd 4b34 abbd
00000040: 4cf3 95be e572 3f3d 58f3 9bbc 3bc3 863c
00000050: 2190 7abd 65ca 29be 654d be3d 601b 753e
00000060: db93 833e f00f 28bd eddc 16be fd16 ee3d
00000070: ad2c 55be 94eb 5cbe c21d 4e3e 2205 503e
00000080: c93e 99be c2ce 683e 9d5c 243e 18c8 4abe
00000090: 7cb5 ea3d 0f08 873e 06f4 7abe 75cd 943e
000000a0: 114c 143e 4a76 3fbe 3a69 c73d a001 6bbe
000000b0: e1dc 90bd 5a19 383e 73a7 81be 0a67 98bc
000000c0: c2e6 923e 1700 55be 8b91 fb3c e8a0 023e
000000d0: 754b 1abe 842a 9a3e bbe4 043c dbed 843e
000000e0: b537 dc3d 4cd1 a73c c406 ab3b 86f6 22be
000000f0: 1b20 bcbd 4e33 8d3e 4590 bdbd 16ad 95be
00000100: bfee 29be e188 07be 90e2 81be f975 803e
00000110: 5507 5cbd 0e1d 113e 327c 693e 0c98 2bbe
00000120: dc5f 683e 714a 293e f57d 2b3e fd72 26be
00000130: 9a7b 73be 4d55 143e fd66 3c3e b1bd 45be
00000140: c69a 293e 7f4f 9dbd 696b 8dbd 4a05 7abe
00000150: dd57 22be f472 903d 9e74 5ebe 1e1c c93c
00000160: 9dd1 203e 4f1c 45be 91c0 373e c897 ccbd
00000170: d96f 0d3e 3e3e 133e 8360 cdbd 1e7b 263e
00000180: cc07 40be 59d8 833d aa46 ecbd 48d6 27be
00000190: a79c 423e c6a3 463d 753f b0bd 591e b03c
000001a0: 2a2e 45bd b2ba 41bd a9ac fb3d 3433 7ebe
000001b0: 083d 6c3d 14de 81be e47d 0bbe ade3 26be
000001c0: fcb4 e6bd 3bed 98bd 166d 29bd daf1 733e
000001d0: 2db9 85be a9b7 d2bd 3748 5d3d bc3b 50bd
000001e0: 7da9 4ebe d040 71be 4ee7 63be e89a 703e
000001f0: 524d a3bd ba8f b53d 9a72 933d a1f1 3d3e
00000200: b18d b43d 1b3f 3d3d 9476 5bbe 9cee e53d
00000210: 0966 283e 5c0f 69be 5d3c 533d de78 8a3e
00000220: a15e 363e a8cd 833e 15fd ac3d a09e 84be
00000230: 56ec 92bb 818a 823e b236 09be d547 343e
00000240: 5859 d2bd f341 5c3e b39b cb3d 24c4 63be
00000250: 4525 593d 6f48 683e ccbb 623c 16a1 8f3e
00000260: bc1f 913e ffff 913e b280 343e 6f35 d6bd
00000270: 1929 26be 4914 1c3e 313f 123d 5b61 083c
00000280: 2885 873e 2e42 813e cf6c 2bbe 8830 20be
00000290: 0154 4abe caaf e8ba 91ed 853e cce7 8abd
000002a0: cad4 5a3e b52c 803e a13f f43d e755 003e
000002b0: bf26 993e 744a 963e fdc4 f13d 24e0 e63d
000002c0: d0b8 8d3e 2e85 4cbe 44c5 a33d 7473 82be
000002d0: 521d 263e 6490 3c3e 8d0e 36be 944c 6bbd
000002e0: 1207 b63d fb39 bdbd f59d 61be 8a24 47be
000002f0: 2a95 983e 9185 a9bd 9ebd 8e3e 4a5e 813e
00000300: 2408 8bbe 3b2b 79be 1772 afbd 23d5 c13d
00000310: 4cc2 233e 1e6b 12be f9c0 e83d 2150 c93d
00000320: 92cc bb3d e165 4b3d 7029 b4bc 7521 983e
00000330: 8c41 99be 8cec c43d 0d0c 8abe d504 6dbe
00000340: 633f 3c3e e147 213e 8eb5 43be 35cd 13be
00000350: f1b0 92be 09d4 473e f458 4b3e d98c 243e
00000360: 3bcf 5a3c 07c6 d63c 7971 3fbe 6df5 4b3e
00000370: fbf9 343e 65ab 41bd 6275 60be 7b27 9a3e
00000380: 9e14 78bd 6b92 a0bd 53cc 85be 7249 2fbe
00000390: 6ba9 b93d 5767 7abe 957f 423d 4f13 283e
000003a0: 54b8 6e3e 31cf ff3d 7521 003d b982 05bb
000003b0: 88ac 31bd d62e 05be 1c20 6dbe a302 223e
000003c0: 41c3 553e 9399 7dbe 000a 863e dd46 4c3e
000003d0: 22d3 523e 9aa4 4fbd a628 5c3d df41 733e
000003e0: c597 953e 7df9 17be e033 043e 9c6f 233e
000003f0: 1b15 3f3e f9df 6dbe 9279 38be a1a9 563e

linear_layer2.weight f4 [3, 256]
-0.01131364 0.021518424 -0.044274814 -0.024760976 -0.03419941 -0.0007087961 0.039471 0.054413334
0.022165298 -0.007684551 -0.019105181 -0.043969154 -0.04953777 0.03152567 0.021306634 -0.028084755
0.033691503 -0.039174564 -0.02144897 -0.023777738 -0.053543672 0.009059563 0.0067088604 0.0285042
0.039765336 0.009373315 -0.054797553 -0.002545163 -0.059079543 0.039340153 0.029721864 0.024062827
-0.007376246 0.056878917 0.04972572 0.026063882 0.061958767 0.0018915758 -0.051814117 0.040271103
0.057510957 -0.051221922 0.0072057396 0.026263505 0.02334097 -0.01780703 -0.020393409 0.056786254
-0.042419054 -0.05371333 -0.038669482 0.018839836 0.040721834 0.042138174 0.018312745 -0.057953432
0.01731529 -0.034664392 0.056837946 -0.04889234 0.028581813 -0.011635728 -0.05845093 -0.001803033
-0.03260486 0.007518783 -0.013793319 0.05845569 0.019464023 -0.05547557 -0.05832249 0.001230821
0.03697881 -0.016180784 0.058362253 0.0284388 -0.013559036 -0.04309115 0.010239415 0.02046334
-0.05973851 -0.022512697 -0.049197406 -0.03995204 -0.020796448 0.014108293 -0.010973111 0.050591566
0.010854334 0.05275359 -0.06172646 -0.0467226 -0.030526973 0.014277764 0.050356776 0.035654284
0.015139639 0.025088117 0.050082736 -0.015794016 0.031818442 0.032666057 0.017774366 -0.010044746
0.043308765 -0.04858891 0.014505744 -0.04524991 0.047264084 -8.544326e-05 0.046759516 0.057455845
0.043174207 0.03579873 0.0046469867 -0.0442478 -0.019198835 -0.04971949 -0.027577527 0.056632705
-0.04366488 -0.054051585 0.061473876 0.035321347 0.03984777 0.028367497 -0.023332827 0.048902437
-0.048382953 -0.026818827 -0.06016507 -0.004979849 0.039403602 0.046085775 -0.016036905 -0.02406241
-0.055967018 0.033012964 -0.030069105 -0.05166155 0.009284236 -0.059507996 -0.06217207 0.01963842
0.01871539 0.046528727 0.020910308 0.06049247 0.03193534 -0.025502622 0.036763422 0.02395846
0.029463753 -0.05266007 -0.005720377 0.023280792 -0.031237796 -0.059933774 -0.04337602 0.027597971
-0.044768415 -0.014583662 -0.05649265 0.04541549 -0.049567282 -0.04871045 -0.04973817 -0.05941233
-0.03183695 -0.024192192 -0.056846187 -0.017588489 0.03715176 -0.015108503 -0.058428638 -0.04709211
-0.026475422 -0.0029375702 0.052523963 -0.038788565 0.040153213 0.017667562 0.009864166 -0.03911849
-0.05917544 -0.055568725 0.016461335 0.061753996 -0.018445097 -0.0043758154 -0.051038638 -0.04302199
-0.050881386 -0.013232723 0.020581909 0.035782322 -0.03045822 0.059491634 -0.019843139 0.035599425
0.0116607025 -0.04795134 -0.02388034 0.05776847 -0.04975511 0.033764385 -0.023340076 -0.006631814
0.016267583 -0.03898654 -0.042361386 0.0005322471 -0.029712543 -0.0057609454 0.036964133 0.02578567
0.03914889 -0.04067856 0.048179016 0.018930346 0.03950721 -0.036286503 0.05181157 0.001066193
-0.055022866 -0.027066767 0.0003587827 -0.032729983 0.0323809 0.053618737 0.058350794 0.014037579
-0.017139837 -0.0580478 -0.0069365352 0.025954194 -0.042420298 -0.05911591 0.005994059 -0.009790592
0.00774692 0.02064608 -0.047811784 -0.05494163 0.060934857 0.054474704 -0.026567332 0.01853203
-0.0028576925 -0.015531033 0.00010249019 -0.027651168 0.02896133 0.014991596 0.01693593 -0.021243379
00000000: d85c 39bc 6847 b03c 8259 35bd 88d7 cabc
00000010: ae14 0cbd 80ce 39ba 58ac 213d 84e0 5e3d
00000020: 0094 b53c b0ce fbbb 7882 9cbc 0019 34bd
00000030: 1ee8 4abd 1021 013d 408b ae3c 0012 e6bc
00000040: 1a00 0a3d 8275 20bd c0b5 afbc 88c9 c2bc
00000050: 9c50 5bbd 906e 143c 00d6 db3b a481 e93c
00000060: fae0 223d 8892 193c 6673 60bd c0cc 26bb
00000070: 64fd 71bd 2423 213d 447b f33c 681f c53c
00000080: 70b4 f1bb def9 683d 32ad 4b3d ec83 d53c
00000090: 7ac8 7d3d c0ee f73a 0a3b 54bd 50f3 243d
000000a0: 9c90 6b3d 14ce 51bd 201e ec3b 9026 d73c
000000b0: 9035 bf3c 0ce0 91bc 1410 a7bc b498 683d
000000c0: 9abf 2dbd 8202 5cbd e463 1ebd 0056 9a3c
000000d0: f0cb 263d 1499 2c3d 9c04 963c 9460 6dbd
000000e0: ccd8 8d3c 40fc 0dbd e8ce 683d 5643 48bd
000000f0: 6824 ea3c c8a3 3ebc 3e6a 6fbd c053 ecba
00000100: ac8c 05bd 2060 f63b 60fd 61bc 3c6f 6f3d
00000110: 0473 9f3c 5a3a 63bd 90e3 6ebd 8053 a13a
00000120: 1877 173d 908d 84bc 420d 6f3d 7cf8 e83c
00000130: b826 5ebc 5880 30bd 38c3 273c bca2 a73c
00000140: 5eb0 74bd 8c6c b8bc 3883 49bd c0a4 23bd
00000150: 505d aabc 7826 673c 90c8 33bc 1a39 4f3d
00000160: 60d6 313c 2614 583d e2d4 7cbd 3260 3fbd
00000170: b413 fabc 48ed 693c e842 4e3d 3a0a 123d
00000180: 400c 783c 9885 cd3c 8e23 4d3d 7462 81bc
00000190: 0e54 023d d8cc 053d 8c9b 913c b892 24bc
000001a0: 8864 313d 2a05 47bd 80a9 6d3c f857 39bd
000001b0: fc97 413d 0030 b3b8 e886 3f3d d256 6b3d
000001c0: 70d7 303d b0a1 123d c045 983b 2e3d 35bd
000001d0: e046 9dbc aaa6 4bbd 44ea e1bc b2f7 673d
000001e0: f2d9 32bd 3265 5dbd 08cc 7b3d 1ead 103d
000001f0: 6a37 233d f462 e83c 7c24 bfbc ec4d 483d
00000200: 342d 46bd 28b3 dbbc a66f 76bd 002e a3bb
00000210: ac65 213d 70c4 3c3d d45f 83bc 881e c5bc
00000220: ac3d 65bd 9a38 073d 7c53 f6bc 109b 53bd
00000230: e81c 183c a8be 73bd 24a8 7ebd c0e0 a03c
00000240: 0451 993c e894 3e3d 184c ab3c f4c6 773d
00000250: a2ce 023d e0ea d0bc 3e95 163d 8844 c43c
00000260: f85d f13c 16b2 57bd 0072 bbbb 5cb7 be3c
00000270: 68e6 ffbc 1e7d 75bd 0eab 31bd 2415 e23c
00000280: 165f 37bd 50f0 6ebc d664 67bd 9805 3a3d
00000290: 1007 4bbd 9c84 47bd 40ba 4bbd 585a 73bd
000002a0: 7667 02bd b42e c6bc 8cd7 68bd bc15 90bc
000002b0: 722c 183d a889 77bc de52 6fbd a8e3 40bd
000002c0: fce2 d8bc 4084 40bb 5e23 573d c2e0 1ebd
000002d0: b277 243d 90bb 903c 509d 213c b63a 20bd
000002e0: f261 72bd 089c 63bd ecd9 863c c2f1 7c3d
000002f0: 2c1a 97bc 0063 8fbb e40d 51bd d437 30bd
00000300: 0069 50bd 10ce 58bc 649b a83c 7c90 123d
00000310: 8483 f9bc 80ad 733d 148e a2bc b4d0 113d
00000320: 880c 3f3c a068 44bd b4a0 c3bc a29e 6c3d
00000330: 04cc 4bbd 864c 0a3d b033 bfbc b04f d9bb
00000340: 9843 853c 5ab0 1fbd 2283 2dbd 8086 0b3a
00000350: b867 f3bc 50c6 bcbb b467 173d 783c d33c
00000360: 965a 203d 909e 26bd 5c57 453d d013 9b3c
00000370: 50d2 213d 28a1 14bd 5e38 543d 80bf 8b3a
00000380: a85f 61bd 20bb ddbc 001b bc39 e00f 06bd
00000390: d6a1 043d 529f 5b3d 3e01 6f3d e0fd 653c
000003a0: d868 8cbc 88c3 6dbd e04b e3bb e49d d43c
000003b0: e8c0 2dbd 8623 72bd d069 c43b b868 20bc
000003c0: e0d9 fd3b f821 a93c 4ad6 43bd 7a0a 61bd
000003d0: d496 793d de20 5f3d bca3 d9bc 7cd0 973c
000003e0: 2048 3bbb e075 7ebc 00f0 d638 b484 e2bc
000003f0: 5040 ed3c 509f 753c 38bd 8a3c 9806 aebc

linear_layer2.bias f4 [3]
0.0013130605 -0.01663196 -0.01400207
00000000: 001b ac3a c03f 88bc f068 65bc
